save_dir/0.01_10/MNIST/Embedding_Generator.pth (torch, 21848 bytes, 1 tensors)

embedding.weight f4 [10, 512]
0	0xbb9b84c9	-0.004746054
1	0x3e832ec4	0.25621617
2	0x3f3be092	0.7338954
3	0xbe3b4630	-0.18288493
4	0x3f7eab53	0.9948017
5	0xbf2658fa	-0.6497952
6	0x3f605225	0.8762534
7	0x3fb8ec76	1.4447162
8	0xbfd32c7a	-1.6497948
9	0x3e7a008c	0.24414271
10	0xbf5b1dfd	-0.85592633
11	0xbf632f4d	-0.8874405
12	0x3e094396	0.13404688
13	0x3f89e279	1.0772239
14	0x401d447e	2.4573054
15	0x3fa54a6d	1.2913338
16	0x3fa69bed	1.3016335
17	0xbeed6905	-0.46369186
18	0xbe3be689	-0.18349661
19	0xbf4ce5da	-0.80038226
20	0xbf5125a1	-0.8169804
21	0x3e4f9e48	0.20275223
22	0xbfe7b936	-1.8103397
23	0xbf49deb6	-0.78855455
24	0x3fa483cc	1.2852721
25	0xbfaa5904	-1.3308415
26	0xbf843e27	-1.0331467
27	0x3f376406	0.71637
28	0x3f2a6739	0.66563755
29	0x3e4b71cd	0.1986763
30	0x3f587d9b	0.8456666
31	0x3fb3fa41	1.4060746
32	0xbf33c3de	-0.70220745
33	0xbede56b8	-0.43425536
34	0xbf7cf01c	-0.9880388
35	0xc0022864	-2.0337152
36	0x3f46ed13	0.77705497
37	0xbe27ce0c	-0.16387194
38	0x3f816790	1.010973
39	0xbef49227	-0.47767755
40	0xbfcabb44	-1.5838399
41	0xbf85c075	-1.0449358
42	0xbfecbdb0	-1.8495388
43	0x3dd46b37	0.10372012
44	0xbf58842a	-0.84576666
45	0x3f472072	0.7778388
46	0x3f53c054	0.82715344
47	0xbf4772a8	-0.77909327
48	0x3f5ab512	0.8543254
49	0xbf43547e	-0.763008
50	0xbf9deb79	-1.2337486
51	0x3f979154	1.1841226
52	0xbf179eac	-0.5922649
53	0xbe7110c6	-0.23541555
54	0xbfd33708	-1.6501169
55	0x3fc3eb39	1.5306159
56	0x3a94ca8a	0.0011351865
57	0xbddd9ce1	-0.10820938
58	0xbf9d6146	-1.229531
59	0xbf0f781b	-0.5604264
60	0xbef4cb25	-0.47811237
61	0x3e8cd135	0.27503362
62	0xbdeca772	-0.11555375
63	0x3ea88d39	0.32920244
64	0x3f984d02	1.1898501
65	0xbfec8634	-1.8478456
66	0x3eba4974	0.36384165
67	0x3ed03dd2	0.40672165
68	0xbfae9b4b	-1.3641142
69	0xbe459c9e	-0.19298026
70	0xbf3662e3	-0.7124464
71	0x3ea9bd66	0.33152312
72	0xbf39f0de	-0.7263316
73	0x3ef4fb7e	0.47848123
74	0x3e905ef5	0.28197446
75	0x3ee39acb	0.44454035
76	0x3eccd19f	0.40003678
77	0x3f7146cc	0.9424865
78	0xbf44baf0	-0.76847744
79	0xbf66cd92	-0.90157425
80	0x3eb6b42e	0.3568434
81	0x3c6473bb	0.013943608
82	0xbf6e4d3a	-0.9308659
83	0x3fa2accd	1.2708985
84	0xbf435695	-0.7630399
85	0x3f1182ab	0.5684001
86	0x3efb1a19	0.49043348
87	0x3ca7330c	0.020410083
88	0xbfa8cc7a	-1.3187401
89	0x3f4d5961	0.80214506
90	0x3f547cf1	0.83003145
91	0xc00b2b56	-2.17452
92	0xbe29cc8c	-0.16581935
93	0xc030b36e	-2.7609515
94	0x3f555d77	0.8334574
95	0xbfb14cc7	-1.3851556
96	0x3e09c605	0.13454445
97	0xbf4b2d59	-0.7936607
98	0xc02df4e6	-2.7180724
99	0x3e6514c6	0.22371206
100	0xbfb31cc2	-1.3993151
101	0xbfae2c6e	-1.3607309
102	0x3f370a5c	0.7150018
103	0xbf1749ae	-0.590968
104	0xbd9100d5	-0.07080237
105	0x3f0123c0	0.50445175
106	0x3f9c13a6	1.2193496
107	0xbeb033f2	-0.3441463
108	0x3fb0a297	1.3799618
109	0xbf56f635	-0.8396943
110	0xbfce32ed	-1.6109291
111	0x3fde7a23	1.7381023
112	0xbc4796ce	-0.012181951
113	0xbfb5287b	-1.4152979
114	0xbf78f708	-0.9725194
115	0xbfa049ab	-1.2522482
116	0x3f899e89	1.0751506
117	0x3fe2ea7e	1.7727811
118	0x3f6c2ffb	0.9226071
119	0x3e1a503f	0.15069674
120	0x3e790a60	0.24320364
121	0xbe83881d	-0.25689784
122	0x3ebf81f1	0.37403825
123	0x3ed68181	0.4189568
124	0xbe372671	-0.17885758
125	0xbdcef1b8	-0.10104698
126	0x3f315ca9	0.69282013
127	0x3fb3abf2	1.4036849
128	0xbfd33db2	-1.6503203
129	0xbe8f1e35	-0.27952734
130	0xbf8b0cbf	-1.0863265
131	0xbeab53be	-0.33462328
132	0x3f8ec86b	1.1154913
133	0x40231a47	2.5484788
134	0x3ff293fd	1.8951412
135	0x3fcf1a1e	1.6179845
136	0x3fec30b1	1.845236
137	0xbeeac658	-0.4585445
138	0x4016440f	2.347904
139	0xbfb9d1ab	-1.451711
140	0xbf06b3ce	-0.5261811
141	0xbe882fe0	-0.26599026
142	0x3e27d7ca	0.1639091
143	0xbfba38c2	-1.4548571
144	0x3f75a1bf	0.9594993
145	0x3e052f15	0.13006242
146	0x3ffcca56	1.9749248
147	0xbf935712	-1.1510947
148	0x3f6abc30	0.916934
149	0x3f0372f9	0.5134731
150	0xbfcaa6e2	-1.5832179
151	0x3f4a567c	0.79038215
152	0x3f5c57aa	0.86071265
153	0x4012a646	2.2913985
154	0x3e9c0838	0.3047502
155	0x3ff6f8aa	1.9294636
156	0x3f8fafc6	1.1225517
157	0xbefc4128	-0.4926846
158	0xbfa4792b	-1.2849478
159	0x3ee0642a	0.4382642
160	0x3f459a06	0.77188146
161	0x3e9f033a	0.3105715
162	0x3fad896c	1.3557563
163	0x3e87cd00	0.2652359
164	0xbe1f0f6c	-0.15533227
165	0xbf73ffb1	-0.9531203
166	0x3c4fd4c1	0.012685002
167	0x3dabf6be	0.08396672
168	0x3e8eebaf	0.27914187
169	0x3f4dd0a3	0.8039648
170	0x3e8ec742	0.27886397
171	0x3e85d6ed	0.26140538
172	0xbe21bd6f	-0.1579492
173	0x3f521f5e	0.8207911
174	0x3f4c96e3	0.79917735
175	0x3ed23a3c	0.41060054
176	0x3f49e8b6	0.78870714
177	0x3f558421	0.8340474
178	0x3eda23a3	0.42605314
179	0xbf142f01	-0.5788422
180	0x3ea75c04	0.3268739
181	0x3fe7b5a0	1.8102303
182	0xbfccecd4	-1.6009774
183	0xbeb7cde7	-0.3589928
184	0x3ebf530b	0.37368044
185	0xbea92af4	-0.33040583
186	0x3e3b693a	0.1830186
187	0xbf472769	-0.7779451
188	0x3ef56301	0.47927096
189	0xbf3c9945	-0.7367137
190	0x3ff2d309	1.8970653
191	0xbec5dd3b	-0.38645348
192	0x3e640a1f	0.22269486
193	0x3f6b70c6	0.91968954
194	0xbeb03b3d	-0.34420195
195	0xbf115400	-0.567688
196	0x3fc42bd0	1.532587
197	0x3f73c227	0.9521813
198	0xbf61bd25	-0.88179237
199	0xbf271496	-0.65265787
200	0xbe9905f8	-0.29887366
201	0x3f9493ab	1.1607565
202	0x3fcb0d42	1.5863421
203	0xc00632a4	-2.0968409
204	0xbf74ceb5	-0.9562791
205	0xbf352f68	-0.7077546
206	0x3f7d2ff7	0.98901314
207	0xbdf4d375	-0.11954395
208	0xbe8df3b5	-0.27724996
209	0xbf6e080e	-0.9298104
210	0xbdcac849	-0.099014826
211	0xbedd44a0	-0.4321642
212	0x3e9b5f2b	0.30346045
213	0x3e823175	0.25428358
214	0x3f3629c7	0.711575
215	0xbe4c9bac	-0.19981259
216	0xbf61fc7b	-0.8827588
217	0xbf31b5e8	-0.6941819
218	0xbeb924bc	-0.3616084
219	0xbdf7871e	-0.120863184
220	0x3efe229c	0.4963578
221	0xbfa3b5f8	-1.2789907
222	0xbf2ebebe	-0.682598
223	0xbeb76639	-0.35820177
224	0x3f4b5fd5	0.79443103
225	0xbf9e8561	-1.2384454
226	0x3e5efb7f	0.21775626
227	0xbebb363b	-0.36564812
228	0xbfa0d90e	-1.256624
229	0x3f5717ae	0.8402051
230	0xbf60bd18	-0.87788534
231	0xbf55f3e2	-0.8357526
232	0x3d213db7	0.039365496
233	0x3f751e47	0.95749325
234	0x3f572b95	0.84050876
235	0xbf29958c	-0.66243815
236	0xbf4f17b5	-0.8089555
237	0xbe71cf55	-0.23614247
238	0x3f839d0b	1.0282301
239	0x3e6663f2	0.22499064
240	0x3ed0aae2	0.40755373
241	0xbfc64a9d	-1.549152
242	0xbf2b4fa4	-0.66918397
243	0xbe9f7a7f	-0.31148145
244	0xbf4c43d3	-0.7979099
245	0xbe6aefbb	-0.22943012
246	0xbeda283a	-0.42608815
247	0xc033da32	-2.8101926
248	0xbd8c05ea	-0.068370655
249	0xbf75198b	-0.957421
250	0xbe0a3872	-0.13498095
251	0xbff648b9	-1.9240943
252	0x3f413b21	0.7548085
253	0xbfc9b832	-1.5759337
254	0x3fc35fc7	1.5263604
255	0x3f8667d5	1.0500437
