save_dir/0.01_10/MNIST/Head.pth (torch, 42374 bytes, 2 tensors)

weight f4 [10, 1024]
000000 c1 38 13 bc 46 d5 f0 3c 95 a4 6b bc 9c b8 41 bc
       -0.008985699 0.029398572 -0.014382501 -0.011823799
000010 01 fe b4 bb 39 23 e3 3b 16 93 fa bc cf 47 48 3b
       -0.0055234437 0.006931689 -0.030587714 0.003056038
000020 41 72 63 bb 28 d8 ca bc b0 6a 8b bb ba 15 af 3c
       -0.0034705552 -0.024761274 -0.0042546615 0.021372665
000030 10 f5 86 bb b2 81 ea bc 7c 90 ca 3c 5e 8e 7e 3c
       -0.004118569 -0.028626297 0.024727099 0.015536873
000040 b9 ba a8 3c 91 89 fe 3c 60 2c f1 3a 00 5e 9f 3a
       0.020596849 0.031071456 0.0018400066 0.0012158751
000050 ef fd 5a bb 9d 69 ca 3c 79 bc 18 3a dd c2 e8 3c
       -0.0033415516 0.024708563 0.00058264245 0.02841323
000060 bd 6f 61 3c 8a 84 bb 3c 78 c2 4e bb 51 41 fc 3c
       0.013759551 0.022890348 -0.0031549018 0.030792864
000070 91 fd bb bc 64 e0 f1 3c 3c 04 dc bc c5 91 b2 bc
       -0.022948058 0.029525943 -0.026857488 -0.021798024
000080 f2 dc e0 bc d4 75 09 3c 01 62 da 3c ee b0 fc 3c
       -0.027449105 0.008389909 0.02665806 0.030846085
000090 6e 85 9c bc e5 3a 3d bb 00 3d f3 ba 04 65 c1 3c
       -0.019106593 -0.0028874215 -0.0018557608 0.023607738
0000a0 3e 64 ac 37 7f 08 78 bb 10 8b bd bb fa 86 98 3c
       2.0550677e-05 -0.003784686 -0.0057844 0.01861905
0000b0 a0 25 62 bc 33 e6 2d bc c5 33 85 bc 1e 63 e7 3c
       -0.013802916 -0.010613966 -0.016260037 0.028245505
0000c0 32 78 ad 3c ca e6 ff bc 70 fb e5 bb 44 e3 86 bc
       0.021175478 -0.031237978 -0.007018499 -0.01646579
0000d0 72 5c cd bc 22 34 07 bc e2 c3 c8 3c d4 14 cb 3c
       -0.025068495 -0.0082521755 0.024507467 0.024790205
0000e0 40 33 bb 3b 6b 5c ff 3c 35 55 d0 bc d8 45 8c 3c
       0.0057128966 0.031171998 -0.025431255 0.017123148
0000f0 2f 6b 87 3c cf 11 ca bc f8 2d bd 3b 91 75 b7 3c
       0.016530601 -0.024666695 0.005773302 0.022394927
000100 d6 92 90 3c c8 7a c6 3c 49 71 f4 bc d2 6a 6a bc
       0.017648142 0.024228469 -0.029839175 -0.0143076945
000110 b6 ec 4a bb be c5 f6 3c 3c 50 f7 3c ba da a0 bb
       -0.0030963845 0.030123588 0.030189626 -0.0049088867
000120 bc b5 33 bc 27 75 b5 bc c9 7f 7b bc 02 a1 df 3c
       -0.010968622 -0.02215059 -0.015350291 0.027298454
000130 34 95 66 3c 08 90 b8 3c 67 01 e3 3c bc 47 8f bc
       0.014073659 0.022529617 0.02771063 -0.01749026
000140 9d 84 5f 3c ac 84 82 bc 55 f1 9c 3c 62 27 bb bc
       0.013642457 -0.015932404 0.019158045 -0.022845928
000150 a2 ad 69 3c bc 5f 18 bc ac 40 89 3c a3 a9 3e 3a
       0.014262589 -0.009300169 0.01675447 0.00072732026
000160 9c 9c be bc 47 12 8a 3c bf 64 f8 bc a0 99 68 3c
       -0.023268037 0.016854418 -0.030321477 0.014196783
000170 15 f3 2a 3c d0 6a 3d bc fd 47 b8 bc d6 a5 5d 3c
       0.010433932 -0.011561111 -0.022495264 0.013528308
000180 59 31 f6 3b c8 28 97 bc b1 81 93 3b 00 6a 1e bc
       0.007513207 -0.018452063 0.0045015444 -0.009668827
000190 24 e4 b8 bc 02 8c d7 3c c4 68 21 bc ab 3b 5e bc
       -0.022569723 0.026311878 -0.009851638 -0.013564031
0001a0 34 e8 90 3c ea 2e 71 3b 44 8b b9 3c ec 33 d9 bc
       0.017688848 0.0036801645 0.022649415 -0.026514016
0001b0 d3 99 bb bc 76 67 6d bc 09 10 38 bc ce 9d c1 ba
       -0.022900498 -0.014489999 -0.011234292 -0.0014771761
0001c0 28 7c c6 3c 00 17 df ba 38 87 8e 3b 4c b0 59 bc
       0.024229124 -0.0017020404 0.0043496154 -0.013286661
0001d0 20 00 8c ba c7 82 4c 3c 29 f9 da bb 67 54 5e 3c
       -0.001068119 0.012482352 -0.0066825342 0.013569928
0001e0 08 c6 74 bc b4 ae 69 bc c5 37 9e bc ee d0 34 bc
       -0.014939792 -0.014262844 -0.019313702 -0.011036141
0001f0 bc f2 00 3c 08 21 43 bc 5b e2 2d bb d2 c6 87 bc
       0.007870372 -0.011909731 -0.0026532623 -0.016574297
000200 3a 35 76 bc cf 7c dc 3c 01 3c b0 ba 81 35 4e bb
       -0.015027339 0.026914982 -0.0013445617 -0.0031464996
000210 be fa e4 bc f9 3c cf 3c 14 e5 84 bc e6 53 8d 3c
       -0.027951594 0.025297629 -0.016222514 0.01725192
000220 70 ba 07 3b 57 96 17 3c 78 b9 da bc 60 fb f5 ba
       0.002071049 0.009252152 -0.026699767 -0.0018766932
000230 4f 1c 51 bc ba 12 d9 bc f4 cf a6 bc 2f 31 b9 3c
       -0.012763097 -0.026498187 -0.020362832 0.02260646
000240 94 7c 3c 3c ab 4c 16 3c d7 c7 57 bc e9 1d eb bc
       0.011504311 0.0091735525 -0.013170204 -0.028700786
000250 06 6d b3 3c cf e8 89 bb d8 c6 c6 bc f3 4b fc 3b
       0.021902572 -0.004208661 -0.024264738 0.0076994835
000260 0d 5b f0 3c ef 81 ca 3c 00 80 51 39 00 5c 99 3c
       0.029340291 0.02472016 0.00019979477 0.018720627
000270 c6 7a e9 bc f8 31 80 3c e7 89 bf 3c c0 09 f2 3b
       -0.028500926 0.015648827 0.023381187 0.007386416
000280 c4 e2 7c bc e8 e1 00 3c 58 d5 88 bc d0 f1 8a bc
       -0.0154349245 0.00786636 -0.016703293 -0.016961008
000290 b6 a2 d5 3c d6 64 9e bc 80 fd a6 bc 8e 90 1b 3c
       0.026078563 -0.019335192 -0.02038455 0.009494914
0002a0 80 fc 7c ba bf c2 ea 3b f0 d7 22 3b 74 ac 2b bc
       -0.00096506625 0.007164329 0.0024847947 -0.010478128
0002b0 a0 65 85 bb 0c 35 e6 3c 64 e3 d9 3c f2 4d e2 bc
       -0.0040709525 0.028101467 0.026597686 -0.027625058
0002c0 6d 0e bd 3c 10 f6 cc bc 2c 2c b2 ba 2d 30 ba 3c
       0.023078168 -0.025019675 -0.0013593487 0.02272805
0002d0 b7 cb 63 bb 79 09 f3 3b e5 0b d7 bc 9f 27 15 bc
       -0.0034758875 0.0074169007 -0.026250789 -0.009103685
0002e0 6c fd e1 3c 1f 8f c0 bc ef cf 50 bc 47 86 ff bc
       0.027586661 -0.023505745 -0.012744888 -0.031191958
0002f0 1d e0 8c 3c f4 ae 32 3b 60 e9 81 3b 5b b5 d5 bc
       0.01719671 0.0027264925 0.003964588 -0.026087454
000300 c1 be 73 bb 29 9f cd bb 3a 36 7d 3c 60 dc d5 3c
       -0.0037192556 -0.006275077 0.015454823 0.02610606
000310 fb d3 41 3c a9 67 fd 3c 13 6c 25 bc 91 0b 8e bc
       0.011830325 0.030933218 -0.010096568 -0.0173395
000320 28 91 5f bc bb 30 83 bc 48 fb 14 bb bc 41 0e 3c
       -0.013645448 -0.016014447 -0.0022732783 0.0086826645
000330 0a 80 f4 3b 7f 8a 93 ba 4c 87 d2 3c ae 85 cd 3c
       0.0074615525 -0.0011256485 0.02569928 0.025088158
000340 2a bb a8 bc 76 1a 35 3c 18 b5 a2 3c b2 70 f4 3c
       -0.02059706 0.011053672 0.019861743 0.029838894
000350 d5 44 4b 3c 80 af 94 3b 56 fc ce 3c 67 88 ea bc
       0.012406548 0.004537523 0.025266808 -0.028629495
000360 81 a6 34 3a fc 72 cf 3c be 74 b4 3c 7a 31 a1 bc
       0.0006891266 0.025323384 0.022028323 -0.019676913
000370 ea 7b da bc 41 e5 af 3c 54 5a a2 bc ac 48 1c 3c
       -0.026670415 0.021471621 -0.019818462 0.009538811
000380 c0 29 06 3a 8d fb 82 3c 2c e7 a3 3c c7 20 d6 3b
       0.00051179156 0.01598909 0.020007692 0.006534669
000390 b9 ea 46 bc a3 c4 92 3c f0 a7 f7 3c d1 43 a2 bc
       -0.012140923 0.01791603 0.030231446 -0.019807728
0003a0 c0 87 c9 ba 70 c0 cc 3c c3 16 97 3c f4 dc 48 3c
       -0.001537554 0.024994105 0.01844347 0.012259711
0003b0 69 8a 63 3c c4 27 66 3c 95 98 94 bc a3 5e a7 bc
       0.01388798 0.014047567 -0.018139163 -0.020430868
0003c0 99 e3 08 3c 13 28 86 3c e4 1c f2 bb 8c 85 97 bb
       0.008355045 0.01637653 -0.007388698 -0.0046240743
0003d0 3b 2f 8a bc 83 9f ef bc af a3 6f bc 36 b3 a5 3c
       -0.016868224 -0.029250866 -0.014626428 0.020227056
0003e0 94 b7 40 3c d4 cb 7e 3c 4e 53 86 3c 8c 24 79 3c
       0.011762518 0.015551526 0.016397145 0.015206467
0003f0 71 3b f0 bc b0 ad 4c 3c db df 88 bc 5a 24 a3 3c
       -0.029325219 0.012492582 -0.016708305 0.019914795

bias f4 [10]
000000 51 17 d1 bc b0 75 47 39 34 a3 82 3c bf 39 8e bc
       -0.025523813 0.00019021961 0.015946962 -0.01736152
000010 c0 e0 6e 39 32 ed e6 3c 82 bf 01 3c f5 40 64 bc
       0.00022781175 0.028189275 0.007919194 -0.013931503
000020 d7 41 9b bc 9b a8 ae bc
       -0.018952293 -0.021320632
