save_dir/0.01_10/MNIST/HyperNetwork.pth (torch, 301626 bytes, 6 tensors)

fc1.weight f4 [128, 512]
-0.00332487 0.043589912 0.041896794 -0.031889636 0.0023431117 -0.010604614 0.019932497 -0.02430793
-0.024624733 -0.03952147 -0.031674538 -0.03380868 -0.025333228 0.034325205 -0.018317422 0.03911529
0.0058164913 0.039310023 0.021217562 -0.038502626 0.027994351 -0.039664824 0.005403305 0.009573836
-0.0019511778 -0.03347503 0.032114502 0.04004041 0.011204017 -0.03468827 0.033693574 -0.027019873
-0.037025437 0.042848743 0.015421446 0.034707043 0.032184772 0.010231111 0.021948244 -0.016179848
0.03802334 0.0067649693 0.021453103 -0.043668143 -0.022212733 0.02205741 -0.010753167 -0.033288717
0.005078721 0.023238253 -0.011133606 0.015359523 -0.0012294868 -0.028608875 -0.030101916 0.035383206
0.019737214 -0.016571729 0.010158259 -0.0063166325 0.04110158 0.02509084 0.0065797395 0.026509304
-0.027018115 -0.014030375 0.039142605 -0.040063925 -0.043620087 -0.0019176711 -0.004392908 -0.03312283
0.02454662 -0.008941874 0.016247952 -0.040655293 0.030358847 0.0039756806 -0.006940148 -0.041989263
0.023225829 -0.031022154 -0.04234403 -0.036694694 -0.03135737 -0.001593293 -0.040255923 -0.011839636
0.043100182 0.038936727 -0.028669368 -0.027309174 -0.026078071 -0.010315013 -0.040127233 -0.021077143
0.0018128834 0.03398042 -0.026424775 0.02177785 -0.0073647196 -0.042248793 -0.024635648 -0.011435673
0.03633224 0.035397638 -0.028005648 0.02283735 0.040158015 -0.04167543 -0.032462217 -0.021512527
-0.0017413549 0.019620877 0.035386153 -0.032465238 -0.009275578 0.02556758 -0.022293411 -0.01687276
0.0016102992 -0.0071630934 -0.035199884 -0.029461345 -1.1037206e-05 -0.042899188 -0.03786421 -0.023263156
0.0099323895 -0.03339138 0.0011915071 -0.037357375 0.03236192 0.037479475 -0.03756882 -0.038537297
0.034501772 -0.020098392 -0.041825764 -0.017274754 0.022158574 0.012461869 -0.04394928 -0.02949772
-0.006205486 -0.03547827 0.03704129 0.024035601 -0.0018409427 -0.009794433 -0.043058056 0.024129473
-0.040855605 0.030069094 -0.0017085121 -0.014587882 -0.015678748 0.008425871 -0.002684038 -0.03317871
-0.02644963 0.026630653 -0.015558044 -0.033038512 -0.011652614 -0.009475323 0.0008930285 0.04265067
-0.021677887 -0.03205121 0.01396559 -0.01671603 -0.013076371 0.015802853 0.03249634 0.028775243
0.004003603 0.03775731 0.03889301 -0.006093065 0.025411872 -0.039497048 -0.025628332 -0.011409978
0.012189358 -0.02440588 -0.023573864 -0.015571416 0.0072148396 0.03205934 0.028040225 -0.026250474
-0.012559776 -0.0025831857 -0.0043677567 -0.03546664 0.022095427 -0.016325582 0.021054188 0.0015702386
0.035006903 -0.024860976 0.030100476 -0.02373052 -0.043476418 0.007895448 0.0072284266 -0.036202453
-0.03356393 -0.0068237223 0.03020077 0.00053338945 0.0076268143 0.03467012 -0.033407073 0.022701146
0.03100615 -0.004458146 0.03948326 -0.03240525 -0.023216696 -0.037094656 0.022358116 0.04348933
0.022951553 0.034846343 -0.023423059 -0.032651614 -0.0040155672 -0.01118581 0.0071075344 -0.0394912
-0.022923259 0.020177055 0.009831179 0.014075313 0.012015596 0.017282551 -0.014346344 -0.043257553
-0.018219123 -0.02957428 -0.0067267264 -0.0303054 -0.0030531704 -0.041133087 0.015606281 -0.027824996
-0.008810024 0.012978373 -0.0043610134 -0.021981072 -0.010020171 0.004445602 0.011215982 0.022447241
00000000: 10e6 59bb 568b 323d f99b 2b3d b59e 02bd
00000010: e48e 193b fabe 2dbc 7a49 a33c 6d21 c7bc
00000020: cfb9 c9bc 44e1 21bd 29bd 01bd f87a 0abd
00000030: a187 cfbc 9698 0c3d 6b0e 96bc 5b37 203d
00000040: 4498 be3b 8c03 213d 74d0 ad3c eeb4 1dbd
00000050: 6954 e53c 9577 22bd 350e b13b 94db 1c3c
00000060: aabe ffba 1d1d 09bd 7f8a 033d 6a01 243d
00000070: 0e91 373c 4a15 0ebd 4602 0a3d c858 ddbc
00000080: fca7 17bd 2a82 2f3d 3caa 7c3c f928 0e3d
00000090: 2ed4 033d 64a0 273c cecc b33c 9a8b 84bc
000000a0: 5dbe 1b3d adac dd3b 6bbe af3c 5edd 32bd
000000b0: 7af7 b5bc beb1 b43c 0d2e 30bc c059 08bd
000000c0: 666b a63b 265e be3c ba69 36bc 82a6 7b3c
000000d0: bb26 a1ba 295d eabc 4b98 f6bc fbed 103d
000000e0: f0af a13c 6fc1 87bc d46e 263c c1fb cebb
000000f0: 215a 283d 4e8b cd3c db9a d73b 0a2a d93c
00000100: 1855 ddbc a8df 65bc ff53 203d 121a 24bd
00000110: faaa 32bd 5d5a fbba 62f2 8fbb ceab 07bd
00000120: fe15 c93c f080 12bc 6d1a 853c 2a86 26bd
00000130: 1eb3 f83c 6d46 823b 2e6a e3bb effc 2bbd
00000140: 1844 be3c 2c22 febc ef70 2dbd 2d4d 16bd
00000150: 9670 00bd 0bd6 d0ba 65e3 24bd 08fb 41bc
00000160: d189 303d 1e7c 1f3d 06dc eabc 7db7 dfbc
00000170: aea1 d5bc 4d00 29bc 745c 24bd f9a9 acbc
00000180: 469e ed3a 0e2f 0b3d c578 d8bc 7667 b23c
00000190: bf53 f1bb 120d 2dbd b3d0 c9bc b05c 3bbc
000001a0: 1dd1 143d 1dfd 103d 1a6c e5bc 6515 bb3c
000001b0: bb7c 243d dbb3 2abd 1af7 04bd 0a3b b0bc
000001c0: 2d3e e4ba f6bb a03c 12f1 103d 45fa 04bd
000001d0: 98f8 17bc 1a73 d13c aca0 b6bc be38 8abc
000001e0: ad10 d33a 62b8 eabb c12d 10bd eb58 f1bc
000001f0: 702c 39b7 0fb7 2fbd 8017 1bbd 6092 bebc
00000200: 76bb 223c 66c5 08bd 582c 9c3a 0c04 19bd
00000210: ef8d 043d 1484 193d c3e1 19bd 49d9 1dbd
00000220: bb51 0d3d 62a5 a4bc 7e51 2bbd c983 8dbc
00000230: e685 b53c de2c 4c3c 2904 34bd 34a5 f1bc
00000240: 6457 cbbb aa51 11bd 9cb8 173d 4fe6 c43c
00000250: c94b f1ba d478 20bc a55d 30bd 2cab c53c
00000260: 3558 27bd 7653 f63c 27f0 dfba 0302 6fbc
00000270: b870 80bc aa0c 0a3c afe6 2fbb 66e6 07bd
00000280: e5ac d8bc 8728 da3c 2be7 7ebc 6453 07bd
00000290: 9bea 3ebc 633e 1bbc 211a 6a3a 78b2 2e3d
000002a0: d395 b1bc 2148 03bd eecf 643c 0ef0 88bc
000002b0: 463e 56bc fc74 813c e21a 053d 0fba eb3c
000002c0: a830 833b 69a7 1a3d 474e 1f3d 55a8 c7bb
000002d0: 8f2c d03c a8c7 21bd 82f2 d1bc ebf0 3abc
000002e0: dfb5 473c d7ee c7bc fa1d c1bc 411f 7fbc
000002f0: 766a ec3b a850 033d 9db4 e53c 3c0b d7bc
00000300: 85c7 4dbc aa4a 29bb 661f 8fbb 7845 11bd
00000310: 7801 b53c 3abd 85bc d579 ac3c 77d0 cd3a
00000320: 6663 0f3d 3fa9 cbbc 4695 f63c 8266 c2bc
00000330: 5414 32bd e95b 013c 70dc ec3b 0649 14bd
00000340: 557a 09bd 8899 dfbb 9b67 f73c 29d3 0b3a
00000350: 5bea f93b 4102 0e3d dbd5 08bd c1f7 b93c
00000360: 9c00 fe3c a415 92bb 33b9 213d 5ebb 04bd
00000370: f130 bebc 91f0 17bd 5e28 b73c de21 323d
00000380: e504 bc3c 0abb 0e3d b7e1 bfbc b3bd 05bd
00000390: 0595 83bb b044 37bc 52e6 e83b 86c1 21bd
000003a0: 8fc9 bbbc 5a4a a53c f412 213c 249c 663c
000003b0: 10dd 443c 2394 8d3c ee0c 6bbc d52e 31bd
000003c0: 4540 95bc c345 f2bc df6b dcbb 0843 f8bc
000003d0: b317 48bb 2b7b 28bd 7db1 7f3c 3ff1 e3bc
000003e0: eb57 10bc 3ea3 543c d5e6 8ebb a611 b4bc
000003f0: a52b 24bc 6aac 913b 3dc3 373c 47e3 b73c

fc1.bias f4 [128]
0.013767626 -0.001965924 -0.039277557 -0.03689982 0.016133923 0.04001529 -0.034589898 -0.016233733
-0.023963165 0.0321989 -0.0025621967 0.013612389 -0.026726523 -0.025999293 0.0024358719 0.042995438
-0.031723738 -0.03338964 -0.0003239881 0.04155893 0.021296587 -0.011318363 0.007365557 0.022122694
-0.011390022 0.019594617 0.041088186 -0.008544846 0.024866238 0.019718507 -0.0037396322 -0.0406113
0.022326795 0.020338578 0.0028219107 0.018532941 -0.01134504 0.0057995385 0.03990423 0.0023278547
0.024017721 -0.02347705 0.040287323 0.021724023 -0.026134038 -0.016567009 -0.0064444956 0.00070979504
-0.0038023463 0.03896608 -0.003486598 -0.007314279 -0.025909968 0.03024251 0.038233925 -0.007208359
0.010969538 0.02203339 0.014841164 -0.012844577 -0.03232196 -0.00667005 -0.02542375 -0.0001903299
-0.0017095078 -0.023150232 -0.024815938 0.022412524 -0.020468414 0.033255618 0.024981264 0.004086005
0.0052477987 0.013028213 0.0030652084 0.029504422 -0.033456646 0.022387061 -0.018330678 0.043829508
0.02800938 0.007599635 0.035898738 -0.022343287 0.0073154657 0.02482589 0.00042005652 -0.005104758
-0.03815768 0.031183852 -0.030018292 0.020769903 -0.027929384 0.033996128 -0.0041170567 -0.034639698
-0.008198952 -0.012052322 0.009354134 0.035377245 -0.03872008 0.003093642 0.035286583 -0.023374336
0.025184631 0.040565725 0.017166521 0.017970847 0.040109485 0.040575378 -0.019393742 -0.041539032
0.011450598 -0.016703853 -0.00857917 0.01645382 0.00036964365 -0.02823943 -0.020891408 -0.025439797
0.015794288 -0.009129634 -0.039709523 0.020760473 0.0129684955 0.03682652 -0.018832197 -0.038113672
00000000: 9c91 613c bbd6 00bb 81e1 20bd 4424 17bd
00000010: 4a2b 843c 13e7 233d 23ae 0dbd 9bfc 84bc
00000020: 664e c4bc fee2 033d 87ea 27bb 7f06 5f3c
00000030: 95f1 dabc 78fc d4bc 26a3 1f3b fc1b 303d
00000040: c0f0 01bd 93c3 08bd f2dc a9b9 b239 2a3d
00000050: 2e76 ae3c a870 39bc c55a f13b a73a b53c
00000060: 379d 3abc e484 a03c 164c 283d afff 0bbc
00000070: 48b4 cb3c b588 a13c 9e14 75bb 0958 26bd
00000080: afe6 b63c 179d a63c ceef 383b 65d2 973c
00000090: 8ce0 39bc 0e0a be3b 9e72 233d ec8e 183b
000000a0: d0c0 c43c f152 c0bc 5204 253d 94f6 b13c
000000b0: 0d17 d6bc 89b7 87bc 592c d3bb 8a11 3a3a
000000c0: c930 79bb e59a 1f3d 687f 64bb 9fac efbb
000000d0: 2441 d4bc 24bf f73c 2d9b 1c3d 1934 ecbb
000000e0: 94b9 333c 5e7f b43c 5b28 733c 1072 52bc
000000f0: 0864 04bd 6f90 dabb 7845 d0bc 4b93 47b9
00000100: 9011 e0ba 8ea5 bdbc cb4a cbbc 789a b73c
00000110: 60ad a7bc 0b37 083d 82a5 cc3c e5e3 853b
00000120: baf5 ab3b 4974 553c aae1 483b 42b3 f13c
00000130: d609 09bd 1265 b73c 382a 96bc 9286 333d
00000140: ed73 e53c 5c06 f93b 8e0a 133d 4509 b7bc
00000150: 93b6 ef3b aa5f cb3c 083b dc39 d045 a7bb
00000160: 3a4b 1cbd 4775 ff3c ece8 f5bc a525 aa3c
00000170: 2acc e4bc 863f 0b3d 60e8 86bb 5be2 0dbd
00000180: e654 06bc 1a77 45bc 1542 193c bbe7 103d
00000190: f298 1ebd b3be 4a3b aa88 103d 897b bfbc
000001a0: 0050 ce3c 3f28 263d cea0 8c3c 9937 933c
000001b0: d849 243d 5e32 263d a0df 9ebc d524 2abd
000001c0: 4a9b 3b3c 85d6 88bc a68f 0cbc 29ca 863c
000001d0: bbcc c139 6156 e7bc 7524 abbc 1f67 d0bc
000001e0: 0663 813c 7694 15bc 74a6 22bd de11 aa3c
000001f0: d079 543c 68d7 163d fb45 9abc 151d 1cbd

fc2.weight f4 [64, 128]
-0.049861386 -0.07577777 0.004695064 -0.04207742 0.007829377 -0.03287919 0.06756394 0.028550033
0.080674514 0.04470472 -0.029210187 0.042054985 0.01811875 -0.079612374 -0.04880643 -0.08034753
-0.012522797 0.06211501 0.08017697 -0.045137864 0.06416577 0.023063734 0.014556815 0.07182437
-0.035276353 -0.0505189 -0.022088077 0.0015888204 -0.002698199 -0.08435331 -0.040361993 -0.060893346
0.02232352 0.06307678 0.08686184 0.07359068 0.06397002 -0.0009455962 0.0403718 0.020235304
-0.052449387 -0.049028777 0.0037428085 -0.005680194 -0.07560464 0.03570071 0.07821509 -0.02686947
0.030941833 -0.047330108 -0.0665373 -0.045664046 -0.025854426 0.020254668 0.0042425967 -0.0109200375
0.038808554 -0.046398 0.030760117 -0.022333635 -0.061164305 -0.04881729 -0.080878824 -0.055097394
-0.05843254 -0.021031562 0.07264393 0.07373456 0.0004017227 0.02688911 0.038581736 0.035298355
0.05523435 0.0030732637 -0.038901582 -0.028905584 -0.041545115 0.044521227 0.056566738 0.079041936
-0.08505336 -0.086284935 -0.021406332 0.015043022 -0.07353856 -0.029287046 -0.03644726 -0.073997654
-0.039526183 -0.031401593 0.0721103 0.0033964142 0.08253003 0.027469229 0.011014679 0.07990696
0.06879876 -0.034960706 0.007621478 -0.08821185 -0.06438632 0.009522258 0.025448477 0.028129669
0.06259261 0.03052753 -0.060485795 0.058678824 0.044690173 0.06529159 0.01830388 0.04898683
0.07613694 0.0016595849 0.014144335 0.018791847 -0.08828535 -0.08584302 0.07879963 0.034420658
-0.07476561 -0.009798278 -0.054111935 0.02233823 -0.064374946 0.021996217 0.0005725333 0.031382415
-0.04069973 -0.07642533 -0.005107323 -0.031083245 0.06282111 -0.02393844 0.013687294 -0.04838669
-0.0035438335 0.084012136 0.06686127 -0.053741485 0.052169964 -0.014629444 -0.025199093 -0.026465716
0.02448812 -0.07590301 0.07794071 -0.07657873 0.042137753 -0.053969726 -0.0532292 0.016580116
-0.06375294 -0.035494715 -0.043058902 0.050582625 0.043059118 -0.06606404 -0.037426557 0.0046493867
0.064162664 -0.043967165 -0.027698277 -0.05634471 0.044691622 -0.03745934 -0.0658337 0.010913337
-0.012307069 -0.06492208 -0.020766322 -0.061318118 -0.0384386 0.052653067 -0.055677295 -0.011444714
0.0810922 0.0066901376 -0.046668056 -0.05581515 -0.051152334 0.06187951 0.031540994 0.07517846
-0.049986172 0.03088285 0.082596965 0.0042988732 0.0378224 0.08228458 0.08506102 -0.03970446
0.088373974 -0.05772312 0.04169765 -0.06561148 0.014962657 -0.031656235 -0.018756147 -0.08036199
0.008704221 0.045584086 -0.0018647134 -0.083837695 -0.08133874 -0.01071278 0.06256313 -0.053388212
-0.010882295 0.046668056 0.08447542 -0.05370974 -0.026462512 0.005491576 -0.045843095 -0.02713058
0.06275084 -0.08374286 -0.04209935 0.067549974 -0.066598594 0.03085831 0.0025652784 -0.043096427
0.04474556 -0.06381447 0.020838637 -0.052612472 0.010049726 0.0787432 0.06415274 -0.068531014
-0.08793176 -0.04882397 0.05819097 -0.0012158839 0.014374414 0.013335938 0.026171656 -0.00392561
-0.058129694 0.085020654 -0.024736762 -0.03503534 -0.0007684319 -0.062597446 -0.060385365 0.0023383282
0.06942706 0.08324173 0.0070234877 -0.0538878 -0.035592116 0.024962809 0.08365553 -0.05297428
00000000: 743b 4cbd 6031 9bbd 0dd9 993b 5f59 2cbd
00000010: ca46 003c 54ac 06bd f75e 8a3d c2e1 e93c
00000020: ae38 a53d 4c1c 373d 344a efbc d941 2c3d
00000030: c66d 943c d00b a3bd 40e9 47bd 3f8d a4bd
00000040: 6b2c 4dbc 4f6c 7e3d d333 a43d 7be2 38bd
00000050: 5869 833d 28f0 bc3c b57f 6e3c a818 933d
00000060: f07d 10bd e8ec 4ebd 0ef2 b4bc f73f d03a
00000070: 44d4 30bb 6ec1 acbd 9e52 25bd 4d6b 79bd
00000080: d1df b63c 662e 813d 9fe4 b13d b6b6 963d
00000090: b702 833d e3e1 77ba e75c 253d 82c4 a53c
000000a0: 2bd5 56bd 66d2 48bd e849 753b ec20 babb
000000b0: 9bd6 9abd e83a 123d 3c2f a03d 5d1d dcbc
000000c0: ba79 fd3c 37dd 41bd b544 88bd 390a 3bbd
000000d0: a9cc d3bc 1eed a53c 7b05 8b3b f5e9 32bc
000000e0: b8f5 1e3d d40b 3ebd a4fc fb3c 07f5 b6bc
000000f0: 6c87 7abd a4f4 47bd cca3 a5bd cead 61bd
00000100: f656 6fbd 624a acbc 57c6 943d 2502 973d
00000110: 4f9e d239 8d46 dc3c e207 1e3d 0295 103d
00000120: 6a3d 623d cf68 493b 4457 1fbd 67cb ecbc
00000130: 362b 2abd e45b 363d 86b2 673d bde0 a13d
00000140: 7530 aebd 28b6 b0bd 555c afbc 0277 763c
00000150: 629b 96bd 63eb efbc b949 15bd 158c 97bd
00000160: 35e6 21bd f59e 00bd 91ae 933d 6096 5e3b
00000170: 8105 a93d 2607 e13c ea76 343c 43a6 a33d
00000180: 5de6 8c3d f532 0fbd 97bd f93b 6aa8 b4bd
00000190: fadc 83bd 3f03 1c3c 5379 d03c 3170 e63c
000001a0: 8e30 803d df14 fa3c f4bf 77bd 3559 703d
000001b0: 0b0d 373d 99b7 853d 05f2 953c 6aa6 483d
000001c0: afed 9b3d 6e86 d93a a4bd 673c 5cf1 993c
000001d0: f3ce b4bd 77ce afbd b361 a13d adfc 0c3d
000001e0: b61e 99bd f588 20bc 7aa4 5dbd aafe b63c
000001f0: 03d7 83bd 6931 b43c 0f16 163a d98a 003d
00000200: c3b4 26bd e284 9cbd 555b a7bb 4aa2 febc
00000210: 5ba8 803d 8c1a c4bc ac40 603c 1f31 46bd
00000220: a93f 68bb 8e0e ac3d 90ee 883d 0820 5cbd
00000230: 2cb0 553d 56b0 6fbc 546e cebc a1ce d8bc
00000240: 4f9b c83c 0a73 9bbd 619f 9f3d 4fd5 9cbd
00000250: a398 2c3d 5c0f 5dbd dd06 5abd 06d3 873c
00000260: e790 82bd e862 11bd 885e 30bd ba2f 4f3d
00000270: c25e 303d 954c 87bd 974c 19bd e259 983b
00000280: b767 833d ea16 34bd 7fe7 e2bc b6c9 66bd
00000290: 900e 373d f76e 19bd d2d3 86bd dacd 323c
000002a0: 97a3 49bc def5 84bd 221e aabc b528 7bbd
000002b0: cb71 1dbd beaa 573d e00d 64bd 9c82 3bbc
000002c0: ab13 a63d f138 db3b 0127 3fbd 6d9e 64bd
000002d0: 1c85 51bd 5e75 7d3d 2131 013d 2af7 993d
000002e0: 4dbe 4cbd 08fe fc3c 9928 a93d 90dd 8c3b
000002f0: a9eb 1a3d d184 a83d 7934 ae3d 25a1 22bd
00000300: 6afd b43d 146f 6cbd 28cb 2a3d 505f 86bd
00000310: ef25 753c f8a9 01bd 7ea6 99bc d494 a4bd
00000320: 269c 0e3c 61b6 3a3d 6669 f4ba 19b3 abbd
00000330: ed94 a6bd a884 2fbc 1921 803d 99ad 5abd
00000340: a74b 32bc 0127 3f3d 7301 ad3d bffe 5bbd
00000350: e9c7 d8bc aef2 b33b f8c5 3bbd f340 debc
00000360: 8383 803d 6081 abbd 5e70 2cbd a457 8a3d
00000370: d864 88bd 91ca fc3c 3b1e 283b e185 30bd
00000380: 1f47 373d 29b1 82bd cab5 aa3c 2d80 57bd
00000390: 9ba7 243c 1d44 a13d 8362 833d fd59 8cbd
000003a0: 9115 b4bd a5fb 47bd a859 6e3d 4b5e 9fba
000003b0: aa82 6b3c fa7e 5a3c f165 d63c 67a2 80bb
000003c0: 6719 6ebd 4f1f ae3d c0a4 cabc 3781 0fbd
000003d0: 9870 49ba 1733 80bd a556 77bd a33e 193b
000003e0: c62f 8e3d a47a aa3d 4925 e63b 74b9 5cbd
000003f0: 0ac9 11bd ce7e cc3c 9753 ab3d 8ffb 58bd

fc2.bias f4 [64]
0.024253393 0.017060243 -0.030516328 0.036154516 0.025677565 -0.03606475 -0.0044567133 -0.061268277
-0.062172186 0.0015378224 0.06922002 0.055361003 0.047653418 0.04061586 0.015403872 -0.059044752
0.0362834 -0.05509676 -0.045958176 -0.014559282 0.07436122 0.038903784 -0.05669572 -0.08176611
0.06099496 -0.05737346 -0.07134733 0.017296562 -0.063384034 0.021361297 0.08049543 -0.0006029212
-0.016454844 0.03326006 0.008289969 0.02632468 -0.059195653 0.08444024 -0.07511269 -0.020176865
0.08051991 -0.03534417 -0.0062370906 -0.021026544 -0.016421212 0.07745638 -0.038497996 -0.07738015
0.023174804 0.007874949 0.04669938 0.04211352 -0.054763053 0.075703345 -0.05684476 0.027329251
0.049581677 0.07931914 -0.049046792 0.07017948 0.028922746 -0.043500785 -0.054432917 0.028143158
00000000: 0daf c63c ecc1 8b3c 61fd f9bc c216 143d
00000010: c259 d23c a2b8 13bd 9f09 92bb 72f4 7abd
00000020: 43a8 7ebd c290 c93a 3ac3 8d3d 38c2 623d
00000030: 3b30 433d d15c 263d 8660 7c3c e9d8 71bd
00000040: e79d 143d 24ad 61bd a43e 3cbd 0e8a 6ebc
00000050: b24a 983d 9359 1f3d c539 68bd fe74 a7bd
00000060: dad5 793d 6f00 6bbd 8d1e 92bd 85b1 8d3c
00000070: 7dcf 81bd e3fd ae3c cada a43d 5b0d 1eba
00000080: 4fcc 86bc b33b 083d a6d2 073c dba6 d73c
00000090: 2477 72bd 01ef ac3d afd4 99bd f449 a5bc
000000a0: 9fe7 a43d 0cc5 10bd 8260 ccbb dc3f acbc
000000b0: c785 86bc 73a1 9e3d 13b0 1dbd 7c79 9ebd
000000c0: 16d9 bd3c ee05 013c d947 3f3d 3a7f 2c3d
000000d0: 394f 60bd 5b0a 9b3d 0dd6 68bd 98e1 df3c
000000e0: 2816 4b3d 1372 a23d 4ae5 48bd 42ba 8f3d
000000f0: 65ef ec3c e12d 32bd 0df5 5ebd 7b8c e63c

fc3.weight f4 [13, 64]
-0.029009582 0.07315038 -0.08488318 0.02776633 0.014861957 -0.099094674 -0.045126572 -0.03068091
0.03288135 -0.04225768 0.06856638 -0.03710437 0.014193595 0.03492534 0.1077888 -0.05135797
-0.071295224 0.06932561 0.036095396 -0.014465661 0.0979204 0.058966696 0.0119497925 0.043121114
0.048900485 -0.07275079 -0.09244986 0.02571641 -0.053367257 -0.039770514 -0.0058330297 -0.052668046
-0.063240245 -0.0065356046 0.07156406 -0.08378999 -0.0045800954 -0.004377097 -0.084882095 0.09064385
-0.11699746 0.0108833155 0.116955 -0.041510627 0.028223319 -0.049474936 0.0687681 -0.068602905
0.041055173 -0.011436551 0.09089931 -0.025548771 0.0025323927 -0.019454613 0.0967612 0.11815239
-0.10910376 -0.08808098 0.1042867 0.09053615 0.10079147 0.0924702 -0.052210465 0.05428729
-0.08801644 -0.011345983 0.053100582 0.03655821 0.027035711 0.056152266 0.12030319 -0.07444868
-0.03537318 -0.10548361 0.123768196 0.088984974 0.02562326 -0.04969759 -0.002726197 0.10217831
0.11286914 -0.10485731 -0.11795419 -0.11973171 0.038520828 0.11579311 -0.061291277 0.052731782
0.06622645 0.07068735 -0.10863025 0.051808737 0.08275439 -0.019643458 0.12007317 0.060400292
-0.023812503 0.096461564 -0.076366484 -0.11113124 0.0582158 -0.03358987 -0.018097294 -0.11523768
0.05709295 0.09858936 -0.083288185 -0.12100097 0.061000884 0.07307583 -0.020420955 -0.046618357
-0.018533813 -0.09213233 0.09856331 -0.11415179 0.105396 0.019487038 -0.10209745 -0.08491735
0.091563195 0.034236263 0.05544378 -0.011361481 0.065951005 -0.08916881 0.030066013 -0.013293476
0.00076358014 0.031868428 -0.03174898 -0.023254111 0.11026265 0.09871098 0.105963826 -0.12493874
-0.086853 -0.0767365 0.089522496 0.045671176 0.11150033 0.10552223 0.037258327 0.104333565
0.119147554 -0.10458176 0.026628096 -0.060169417 -0.042828728 0.009356484 -0.03340459 -0.0627238
0.093359515 0.064162865 0.096946225 -0.0993747 -0.0701825 -0.10255484 -0.09617336 -0.017529653
0.02558039 -0.026280299 -0.014770748 0.02011235 0.02135132 -0.010816991 0.034469757 -0.018955588
0.07190803 0.049897745 0.052320395 0.008797392 0.0056554074 0.02770345 -0.056263924 0.08270314
0.110549 -0.030452639 0.03374584 0.11751742 -0.060335666 0.02531892 -0.074115425 0.00011363625
-0.07524201 0.10491476 -0.12051764 -0.11960547 -0.037856117 0.10717969 0.089677945 -0.048438903
0.026706487 0.015205399 -0.06284191 -0.07269384 0.12458751 0.07850173 -0.014363258 0.080740124
0.043784216 0.11393608 0.022554008 -0.0919418 -0.039101645 0.10415062 0.018694686 0.06866217
-0.052266687 -0.011853321 -0.024986045 -0.11497757 0.11232903 0.02169548 -0.09592381 -0.056397844
-0.117780484 0.10371709 -0.060068235 0.017551854 -0.028814392 0.02798952 0.0496058 0.11737409
0.11727883 0.017635956 0.071970835 0.077406436 -0.040042326 0.043198034 -0.03258042 -0.020284459
-0.043028437 -0.052647937 0.119776994 0.013395727 0.040021677 -0.05326603 -0.054364517 0.09406681
0.031646743 -0.09632011 0.11013882 0.021046683 0.0008814037 0.08850694 0.08187573 -0.05308306
0.062075883 0.100035265 -0.070044294 0.050466523 0.059275895 -0.004820138 -0.08953759 0.07074504
00000000: 81a5 edbc decf 953d 3cd7 adbd 3776 e33c
00000010: 917f 733c 26f2 cabd a4d6 38bd 8856 fbbc
00000020: 98ae 063d 6416 2dbd 886c 8c3d c0fa 17bd
00000030: 418c 683c e00d 0f3d 60c0 dc3d bc5c 52bd
00000040: 3b03 92bd 96fa 8d3d c4d8 133d 6101 6dbc
00000050: 7e8a c83d 1087 713d 10c9 433c c49f 303d
00000060: e04b 483d 5efe 94bd 5a56 bdbd 38ab d23c
00000070: a097 5abd 68e6 22bd 0023 bfbb 73ba 57bd
00000080: 1a84 81bd a028 d6bb 2e90 923d 169a abbd
00000090: a014 96bb c06d 8fbb aad6 adbd 7ca3 b93d
000000a0: 5d9c efbd ef4f 323c 1a86 ef3d 0c07 2abd
000000b0: 9734 e73c 3ba6 4abd 4ad6 8c3d ae7f 8cbd
000000c0: 7829 283d 5f60 3bbc 6b29 ba3d a84b d1bc
000000d0: 80f6 253b 485f 9fbc bc2a c63d e1f9 f13d
000000e0: cb71 dfbd cd63 b4bd 4494 d53d 046b b93d
000000f0: c26b ce3d 0461 bd3d a4da 55bd 595c 5e3d
00000100: f741 b4bd 80e4 39bc ff7f 593d 10be 153d
00000110: ff79 dd3c ebff 653d 8561 f63d 8d78 98bd
00000120: 78e3 10bd ca07 d8bd 2e7a fd3d c13d b63d
00000130: dfe7 d13c b38f 4bbd ffa9 32bb dd42 d13d
00000140: f027 e73d 6ebf d6bd f791 f1bd e635 f5bd
00000150: 04c8 1d3d f024 ed3d 900c 7bbd 48fd 573d
00000160: bca1 873d 88c4 903d 8979 debd 6635 543d
00000170: 227b a93d 51eb a0bc ece8 f53d 4c66 773d
00000180: 7012 c3bc a48d c53d 0866 9cbd c798 e3bd
00000190: b173 6e3d 8895 09bd c740 94bc bc01 ecbd
000001a0: 4cda 693d 38e9 c93d ff92 aabd 5bcf f7bd
000001b0: 10dc 793d c8a8 953d d949 a7bc e4f2 3ebd
000001c0: 39d4 97bc e0af bcbd 90db c93d 6ac8 e9bd
000001d0: dcd9 d73d 48a3 9f3c 7818 d1bd 26e9 adbd
000001e0: 7c85 bb3d 533b 0c3d 0419 633d 8125 3abc
000001f0: 5211 873d 239e b6bd 004d f63c e1cc 59bc
00000200: ff2a 483a 7888 023d 380b 02bd 687f bebc
00000210: 62d1 e13d fb28 ca3d 9003 d93d e2df ffbd
00000220: fcdf b1bd 0728 9dbd 9257 b73d b311 3b3d
00000230: 495a e43d 0a1c d83d 309c 183d d6ac d53d
00000240: a203 f43d f62e d6bd 2a23 da3c 3574 76bd
00000250: 2d6d 2fbd f04b 193c 40d3 08bd 5675 80bd
00000260: 4633 bf3d d267 833d be8b c63d f684 cbbd
00000270: d8bb 8fbd 4608 d2bd 8af6 c4bd 599a 8fbc
00000280: f78d d13c c849 d7bc 0201 72bc a8c2 a43c
00000290: f7e8 ae3c c039 31bc 2930 0d3d c048 9bbc
000002a0: 8444 933d 9461 4c3d e94d 563d f022 103c
000002b0: ff50 b93b 58f2 e23c 0075 66bd 4460 a93d
000002c0: 8467 e23d d077 f9bc 1439 0a3d f9ac f03d
000002d0: 8822 77bd a069 cf3c d4c9 97bd ff4f ee38
000002e0: 7c18 9abd 8ddd d63d f4d1 f6bd b6f3 f4bd
000002f0: 040f 1bbd 0681 db3d 12a9 b73d df67 46bd
00000300: 90c7 da3c 1120 793c 42b3 80bd 82e0 94bd
00000310: bd27 ff3d 84c5 a03d df53 6bbc 145b a53d
00000320: 1457 333d 5257 e93d 2fc3 b83c fc4b bcbd
00000330: 0c29 20bd ec4c d53d 9925 993c c09e 8c3d
00000340: 9815 56bd 6f34 42bc 89af ccbc 5c79 ebbd
00000350: c30c e63d b8ba b13c b473 c4bd 6d01 67bd
00000360: e536 f1bd a069 d43d 1c0a 76bd e8c8 8f3c
00000370: 290c ecbc 474a e53c 742f 4b3d d461 f03d
00000380: e22f f03d 4879 903c 7265 933d 4487 9e3d
00000390: 6c03 24bd 6cf0 303d 0c73 05bd 982b a6bc
000003a0: 963e 30bd 5da5 57bd a44d f53d c079 5b3c
000003b0: c5ed 233d 7b2d 5abd 54ad 5ebd 1aa6 c03d
000003c0: 04a0 013d 7a43 c5bd 7690 e13d 186a ac3c
000003d0: 000e 673a 2043 b53d 76ae a73d 9f6d 59bd
000003e0: 4843 7e3d 4adf cc3d 6273 8fbd fcb5 4e3d
000003f0: 48cb 723d 40f2 9dbb 7c5f b7bd c7e2 903d

fc3.bias f4 [13]
0.07946323 0.06825337 0.005095497 -0.053691015 -0.06803371 0.10961214 -0.06186681 -0.028423145
0.028128177 0.11764182 -0.047450274 -0.056419116 -0.012759268
00000000: 9ebd a23d 6cc8 8b3d 20f8 a63b 1ceb 5bbd
00000010: 4255 8bbd 547c e03d 0d68 7dbd a8d7 e8bc
00000020: 106d e63c 32ee f03d 385b 42bd bb17 67bd
00000030: 400c 51bc
